model/model.pth (torch, 214431 bytes, 4 tensors)

linear1.weight f4 [256, 203]
00000000: b872 e83c d286 5b3d 83d5 7bbd 04f0 783d
00000010: 88c2 9b3c 66e2 a3bc e002 4a3d c214 3b3d
00000020: caf4 8e3d d07a 5abd 3ccf 5abd 2e76 5ebd
00000030: 0262 32bd 90be d83c 1060 f43c c520 b03b
00000040: 2d8c 9c3c 7bd1 9a3d 664f 47bd 5cc5 9c3c
00000050: 04d2 533d e18d 96bc a1d0 ce3d 9582 d3bd
00000060: f35d 2bbd a7ad 08bc f1a9 c5bd ecbd 92bc
00000070: 7153 ecbc d06e 813d 41d1 43bd 26ae 133c
00000080: f9e7 f6bc e7c0 383d 07b9 323d 9ef4 a53d
00000090: 5ce2 b13c d728 923b 6062 2ebc 234d a13d
000000a0: 4e6d 2e3d 2fbb ebbc bbe0 bb3c a5f1 10bb
000000b0: 2a05 85bd 472f 14bc adce a2bd d87d 71bc
000000c0: 586c e0bd 01f9 79bc cdd7 2d3c a310 16bd
000000d0: 5639 a73b 0fa3 a63c 4043 d4bc 6ebb af3b
000000e0: 5ff4 dcbd 6150 c4b9 6af4 cdbd 9bb1 ccbd
000000f0: 070a d9bc f10c 9ebd 77e5 4cbc ea44 75bd
00000100: e2ca b2bd 6187 4fbd 8686 acbd 47e1 0f3c
00000110: 43a2 80bc 0663 b4bc 853a 883d 1e17 23bd
00000120: c56c 743d d4f4 c6bd 9c87 b1bd 9a7a fe3b
00000130: 7ce4 07bd b0f0 833d 9193 ac3c c5bc e4bc
00000140: 8225 ca3b 6a34 4bbc 6692 8abd e999 31bd
00000150: fc0c 093d 398f 953d 21b0 89bd 05b0 5e3d
00000160: 4ad2 ce3b a1b0 12bd c117 9d3c dbe9 bb3a
00000170: e44f 0abd 8a6d 86bd b7ff 53bc 423d f1bd
00000180: 3d45 a13d 6a2c 8ebd e129 81bd d24b babd
00000190: d24f 5d3d 70dc 58bd 15b7 033a 0013 25bd
000001a0: 0b77 01bc a409 0d3d 2817 8abd 2ccd 293d
000001b0: c388 173c cc5b 27be fe40 06bd 8547 3bbe
000001c0: e0eb 733d 8d32 da3c 84d5 98bd e66d 04bd
000001d0: 0ed1 033d 254a be3d 5746 97bc b2b4 b43d
000001e0: 7f1e d9bd b7aa 28be eb1e 3dbe ec3d e8bb
000001f0: 1c98 0dbe 0928 b9bd e2df 7b3c 9f7e c8bd
00000200: ee30 8f3c e7b0 6c3b dd16 4b3d edd7 ffbd
00000210: 1be0 46bd 57c1 ffbc 9d2c d2bc cc6c 48bd
00000220: 377b a33d 200d 413d 7ac8 adbc 1017 163d
00000230: 6b3b 873d 8b7a 743d 5038 cb3d 934f e73d
00000240: 0aa2 4abc 98ce 09be 0f4d c53d 1908 1c3e
00000250: a997 97bd 6c77 2fbd 7590 8bbd 7ba5 a0bd
00000260: 0f15 a63d 5420 3f3e 0f1e 0abe 7131 d93d
00000270: c8dc 843b 3b00 573d ffcd fdbd 3cc5 27be
00000280: ecc3 fbbd a051 b3bd 20c1 973d c627 0a3e
00000290: 6396 7ebd 456c bfbd 7aea ec3b 7452 5e3b
000002a0: a6dd 8dbd 5364 febd 3389 26bd 2432 c93c
000002b0: 8c57 e9bd 0fcc cdbd 5718 0cbe e0c3 8abd
000002c0: 7579 e0bd 481f 51bb 240f 3ebe 37bd 9dbd
000002d0: 7527 07be fa33 21be e102 8e3d a61b fdbd
000002e0: cc33 38be 01d2 b1bd 64c4 2dbe 7c1a 6fbe
000002f0: 6d9a abbe db8a a6be 1cda 40bd d171 06be
00000300: e9ed a3bd d95b 263d 4d61 5fbe de77 27bd
00000310: 054b 5cbe a67c 11be 376d 83be a2d6 6cbe
00000320: 6529 48be a020 47bc 8435 fd3c 98f6 153d
00000330: 4ca6 eabc 0094 91b8 3351 513e c87f a53d
00000340: 4e09 5cbc e8c3 e63c bc03 153d cf26 89bd
00000350: bcb8 733d 6ad5 4cbd f0ba 523d d80f bbbd
00000360: 5ca0 983d ff36 afbd bcda f93b 81ad 52be
00000370: 6f3f c2bd 0882 8a3c d865 353d dc05 8ebc
00000380: f8e2 483e 20b0 5a3e 5e7d 23be 0c75 ebbd
00000390: a6e5 eebd c9ef 75be ee51 75bd de59 a33d
000003a0: 0029 02bb b556 1f3c f0b6 bb3d afae 18be
000003b0: 69ba a9be a9f3 b9bd 7ba2 de3d eafc 07be
000003c0: e4a2 9cbe d43b c4bd 8654 2c3d d0e6 a73e
000003d0: e2b8 86be 961d 36be 7096 083d f297 21bc
000003e0: a2fe bc3c d625 dc3b d019 2a3d 9a6c 2cbd
000003f0: e23d 29bd 8e80 f3bd d0c3 91bd b589 42bc
0.028375015 0.05359537 -0.061482918 0.06077577 0.019013658 -0.020005416 0.049319148 0.045674093
0.069802836 -0.05333978 -0.05342029 -0.054311924 -0.0435505 0.026458055 0.029830962 0.005375
0.01910981 0.075594865 -0.048659705 0.019137077 0.05171396 -0.0183782 0.100983866 -0.10327641
-0.041837644 -0.008342183 -0.096515544 -0.017912827 -0.028848382 0.06319964 -0.047806982 0.009013688
-0.03013991 0.04510584 0.043633487 0.08103298 0.021714382 0.004460435 -0.010643572 0.07876041
0.04258471 -0.02877578 0.022934308 -0.0022116688 -0.064951256 -0.009044475 -0.079495765 -0.014739476
-0.10958165 -0.015257121 0.010610533 -0.03663696 0.0051032705 0.020341424 -0.025910974 0.0053629195
-0.107887976 -0.0003744392 -0.10056384 -0.09994813 -0.02649404 -0.07717312 -0.012505881 -0.059880175
-0.08730103 -0.050666217 -0.08424096 0.008781738 -0.015702372 -0.022019874 0.06651787 -0.03981697
0.059674043 -0.09714666 -0.086684436 0.00776608 -0.033176884 0.06442392 0.021066459 -0.027922044
0.006169022 -0.012402633 -0.067662045 -0.04335967 0.03345965 0.07302708 -0.06723047 0.054367084
0.0063116895 -0.035812978 0.019176366 0.0014336662 -0.033767596 -0.06563862 -0.012939385 -0.11779262
0.07874534 -0.06942065 -0.06306816 -0.09096493 0.0540312 -0.0529446 0.0005024535 -0.040301323
-0.007901917 0.034433022 -0.06742698 0.041455433 0.009248915 -0.16343611 -0.032776825 -0.18289001
0.05955112 0.026635433 -0.074626 -0.03233137 0.032181792 0.09291486 -0.018466158 0.088235274
-0.1060152 -0.16471373 -0.18468826 -0.00708746 -0.13827556 -0.09040839 0.015373202 -0.09789776
0.017479386 0.0036116184 0.04958235 -0.124923564 -0.048553567 -0.031220121 -0.025656039 -0.04893188
0.07982486 0.047131658 -0.021213759 0.036643088 0.0660313 0.05968718 0.0992285 0.112944745
-0.012367735 -0.13457716 0.096338384 0.15237464 -0.07401974 -0.0428385 -0.06814662 -0.07844063
0.08109485 0.18664676 -0.13488029 0.10605133 0.0040546395 0.052490454 -0.12392806 -0.16383833
-0.122932285 -0.08755803 0.074098825 0.13491735 -0.06215514 -0.09346823 0.0072301 0.0033923658
-0.06927042 -0.12421479 -0.040658187 0.024560042 -0.11393651 -0.10048687 -0.1368116 -0.067756414
-0.10960666 -0.0031909514 -0.18560463 -0.077021055 -0.13198645 -0.15742484 0.06934143 -0.12358789
-0.17988509 -0.08682633 -0.16969448 -0.23349947 -0.33516255 -0.32527813 -0.047083005 -0.13129355
-0.08004362 0.040614937 -0.21814461 -0.0408858 -0.21512993 -0.14207706 -0.25669262 -0.23128751
-0.19547041 -0.0121537745 0.030909307 0.036612123 -0.02864375 -6.941706e-05 0.20441131 0.08081013
-0.013429953 0.028169587 0.036380515 -0.06696855 0.05950235 -0.050008215 0.05144781 -0.09133881
0.07452461 -0.085554115 0.007624952 -0.20573999 -0.09484755 0.016907707 0.04428658 -0.017336778
0.19617832 0.21356249 -0.15965793 -0.11496934 -0.11664896 -0.24017252 -0.059892587 0.07976125
-0.0019860864 0.009725262 0.09165752 -0.14910387 -0.33150032 -0.090796776 0.108708344 -0.13280073
-0.30593026 -0.09581724 0.042072795 0.32793283 -0.2631293 -0.17784724 0.033346593 -0.009862887
0.023070637 0.0067183776 0.041528523 -0.042095758 -0.04131878 -0.11889754 -0.071174264 -0.011873652

linear1.bias f4 [256]
00000000: d9e7 0ebe f39d 93bf bd43 18be 7d12 8fbf
00000010: 1535 47be 359a 84bf 42bd f6bf e685 50c0
00000020: 2f6e 58c0 ce36 5fbf d9be 18c0 ced7 0ebe
00000030: a98b 80bf 47aa 34bf 9978 32c0 596f c8bf
00000040: ca22 62bf 8471 f5bf 93a9 21be 2874 88bf
00000050: 47d2 03c0 564a d2bf d6c1 89bf 2b74 14be
00000060: 46b2 a2bf 9518 00be e57e 77bf 5c1f a4be
00000070: 7fcb 80bf 2d0c 93bf 1404 2abf 8245 92bf
00000080: 3a37 57be 4d0c a0bf 7655 cebd 5196 36be
00000090: 914f 70bf 750c 4dbf 814b d3bf 7142 c1bf
000000a0: eb01 1ebe 133b 80bf 1484 8d3f 1569 32bf
000000b0: 15b4 19be 9656 1cbf d77e 51be 6d32 f9bd
000000c0: 84d3 d9bd 4dc6 74bd e5fb a6bf f399 1fc0
000000d0: ad4f 06c0 54ac bebc fd26 0bbe d4c4 cbbf
000000e0: 937e 1fc0 cc0f f6bf 28ee 43c0 0eef 55be
000000f0: 9baf 24bf 5ede 3cbf 5043 28be a6e5 e9bf
00000100: 8791 27c0 f9cf 0cc0 8642 d0be d4b9 3fbf
00000110: bc00 72bf a155 a5bf 4ca0 16c0 a808 b1bf
00000120: 507d 1dc0 3d7d cebd 20fb 65bf bf37 c2bd
00000130: 6478 bfbe 1522 1bbe 3066 c540 bdf7 12c0
00000140: 4bff b5bf 3549 b3bd a08e c5bf 85df 07bf
00000150: 7a97 09be 9d77 f5bc 3498 24c0 4ed6 e2bd
00000160: d1a1 bcbe aa15 48be 5166 abbd c942 75be
00000170: 9eb8 01c0 b6bd 0ec0 ec64 60bf 5416 b1bf
00000180: b7a0 0fbe 24fe 573f 1196 44bf 560e a1bd
00000190: 13bb cdbd 95e1 59bf 93be 99be 1a8c c2bf
000001a0: da08 72bf ac53 78bf edfa 37c0 414b 29c0
000001b0: 2a03 89bd 60f3 37c0 cea6 03be 1a49 01c0
000001c0: 3016 f6bf 034b 64bf 3854 dfbe 61a3 59bd
000001d0: ee24 7abf 38ba 0ac0 d96a 3ebe d5dc 1bc0
000001e0: 6440 d9bf 5dcc 43bf 6d55 99bd 0c0e 36c0
000001f0: ff8d d7bf b360 88bf 70f8 01be 9bf1 2dc0
00000200: 733b b1bf 56b0 b6be 7cab 06bf dd8e 01be
00000210: 42be e7bf ff3a 89bf 512a 8fbf 2b1e 9cbf
00000220: b9f8 2cbf d40d 88bf ed6e 98be 9e3c 94be
00000230: 6006 2ec0 5cb3 a2bd 78a3 01bf 7ea9 e9bf
00000240: e9e0 febf 6393 f3be 9b6e a8bf 58ff 11c0
00000250: f348 95bd a16a ddbf fdb0 05bf df15 87bf
00000260: 291b 21c0 0a34 25c0 f6a9 0abf 46d9 cdbf
00000270: 18fd 4ec0 02f5 ebbf ca20 0ebf 2ac8 90bd
00000280: 116e 82bf cc2f 21c0 64a8 15c0 3357 ecbe
00000290: 434a bbbe 31fe 0ac0 1a19 22c0 ab4b f0bf
000002a0: ddda ecbf c395 eabf 145c 1dc0 2408 603e
000002b0: 62af 79be 2066 7dbf 172f 33c0 61e5 cfbf
000002c0: 295c 8dc0 37af 12bf 2b82 65bf e2f8 7fbf
000002d0: fa4a d9bd 56d6 06c0 52c1 82bf 096f efbd
000002e0: e105 23be f5e2 78bf 1cf1 7fbf 5e2a 14be
000002f0: 55f2 5dbe 22c9 92bf 216f aabf 93d5 1ebf
00000300: 3c40 41bf 1220 d0bd 8bcd b3bf 6cf4 45bf
00000310: 13fe 31be c89e 25be c256 c6bf eca1 acbf
00000320: 0169 8abf 018d ebbf 4369 20c0 701c 13be
00000330: 7aa5 cbbf 5e00 39bf d7bb e1bf d15d 85bf
00000340: 0169 6fbe d365 ffbf 0369 02c0 cf61 afbf
00000350: 0613 30bf 6369 1dbe d5a0 42bf 29d4 c9bf
00000360: 6221 2bbf ff44 5cbe c002 43bf 3ede 44be
00000370: e7b0 2fbe 0113 3dbe 227c 8bbf 1876 f3bf
00000380: bc4e 84be becd cabf 15ec 12be f0a6 b8bd
00000390: eb37 08be 6d93 d7bf 758c 13c0 9948 e8bd
000003a0: 331b 46bf 3134 cbbf 8063 323f fac9 ddbd
000003b0: 5200 a5bd 2dd2 f4bd 798b 82be 60fd b4bf
000003c0: 292c 2fc0 1e47 90bf 9135 3abe 54b8 6ac0
000003d0: a9e9 febd cdf2 e9bf ab77 68be 0c77 303f
000003e0: 1fde 2abe 8e5d 29c0 83f9 bebd 4524 eebf
000003f0: 0461 ddbf d7a8 1bbf c616 31be e481 99bf
-0.1395563 -1.1532577 -0.1486959 -1.1177517 -0.19453843 -1.035956 -1.9276507 -3.2581725
-3.381725 -0.87193 -2.3866484 -0.1394951 -1.0042621 -0.7057232 -2.7886107 -1.5658981
-0.88334334 -1.9175267 -0.15787344 -1.0660448 -2.0597093 -1.6428936 -1.0762279 -0.1449744
-1.2710655 -0.12509377 -0.96678 -0.32055175 -1.0062102 -1.1488091 -0.6641247 -1.1427462
-0.21017161 -1.2503754 -0.10074894 -0.17830779 -0.9387141 -0.8009713 -1.6507417 -1.5098401
-0.15430419 -1.0018028 1.1055932 -0.6969159 -0.15010102 -0.6106962 -0.20458542 -0.12167821
-0.106360465 -0.059759427 -1.3045622 -2.4937713 -2.098613 -0.023275532 -0.13589092 -1.5919442
-2.4921005 -1.9223571 -3.061411 -0.20891973 -0.6433045 -0.73776805 -0.16431928 -1.8273208
-2.6182573 -2.2001936 -0.40675753 -0.74892926 -0.9453237 -1.2916757 -2.3535337 -1.3830767
-2.4607735 -0.10082481 -0.8983631 -0.09483289 -0.37396538 -0.1514972 6.168724 -2.2963707
-1.4218534 -0.087541975 -1.5434151 -0.5307544 -0.1343669 -0.029964263 -2.5717897 -0.110760316
-0.36842206 -0.19539514 -0.08369125 -0.23951258 -2.0268931 -2.230329 -0.87653995 -1.3834939
-0.14026152 0.8437216 -0.76791483 -0.078640625 -0.10045447 -0.85109836 -0.3002821 -1.5199006
-0.94544756 -0.97002673 -2.8746903 -2.6452181 -0.066900566 -2.8742294 -0.128566 -2.0200868
-1.9225521 -0.8917696 -0.4361894 -0.053134326 -0.977126 -2.167616 -0.18595447 -2.4353535
-1.6972775 -0.7648371 -0.07486997 -2.8446074 -1.6840209 -1.065451 -0.12692428 -2.7178714
-1.3846267 -0.3568141 -0.52605414 -0.12652154 -1.8104937 -1.0721129 -1.1184789 -1.2196707
-0.6756702 -1.062922 -0.2977213 -0.28952497 -2.719139 -0.07944366 -0.5064006 -1.825485
-1.9912387 -0.47573385 -1.3158754 -2.28121 -0.072893046 -1.7298166 -0.5222319 -1.055355
-2.5172827 -2.5813012 -0.5416559 -1.6081932 -3.2341976 -1.8434145 -0.5551878 -0.07069428
-1.018984 -2.5185423 -2.3384027 -0.46160278 -0.36580095 -2.1717646 -2.532782 -1.8773092
-1.8504292 -1.8326954 -2.458745 0.21878105 -0.2438331 -0.98983955 -2.7997491 -1.6241876
-4.4175 -0.57298607 -0.89651746 -0.9998914 -0.10610004 -2.106832 -1.0215247 -0.116911
-0.15920211 -0.9722131 -0.9997728 -0.14469287 -0.21674474 -1.1467631 -1.3315164 -0.6204464
-0.7548864 -0.10162367 -1.4047102 -0.77326083 -0.17382078 -0.16173851 -1.5495226 -1.3486915
-1.0813295 -1.8402406 -2.5064247 -0.14366317 -1.5909874 -0.72266185 -1.7635449 -1.0419255
-0.233799 -1.9952949 -2.0376594 -1.3701724 -0.6877903 -0.15372233 -0.7602666 -1.5767871
-0.66847813 -0.21510695 -0.7617607 -0.19225404 -0.17157327 -0.1846428 -1.0897257 -1.9020414
-0.2584132 -1.5844038 -0.1434787 -0.09016216 -0.13302581 -1.6841866 -2.3054478 -0.11341972
-0.7738525 -1.5875303 0.69683075 -0.108295396 -0.08056702 -0.1195415 -0.25497034 -1.4139824
-2.7370703 -1.1271703 -0.18184496 -3.6675005 -0.12446911 -1.8277222 -0.227019 0.6893165
-0.16686295 -2.6463351 -0.09324934 -1.8604819 -1.7295232 -0.60804504 -0.17293844 -1.1992764

linear2.weight f4 [4, 256]
00000000: dd47 62bd 1cb1 0c3d ace9 98bc 02d1 013e
00000010: e59e 43bb deab ab3a e2bf 433e 5201 8f3c
00000020: 40b0 e03d 8644 f83c bf0c 4b3d e24a a93d
00000030: c9ee e63c 8117 fc3c dc97 063e 8ad6 743e
00000040: f923 483c 5d6f 063e c148 c03c 2d65 1b3e
00000050: a037 813e 34a0 4f3e fc26 4c3d 9f13 a4bc
00000060: c20a ddbb a8f5 9bbc 5bc1 b73d 7973 2f3c
00000070: 6c13 933d 5980 8cbd 76e3 2bbb 3ca7 e53d
00000080: 7cdb dd3c 377b 3d3d dcd7 b8bd 506a 6cbd
00000090: b39b cd3d d097 5c3d 4578 383e d5db 803e
000000a0: ad5d 1fbd 1e81 fc3b 1489 883e 6625 9b3d
000000b0: c01b b5bd 722f 2c3d 9f99 d3bb 0c02 f7bc
000000c0: fec4 6cbd 130b f2bc 0722 6e3d af97 e83d
000000d0: f66d 233e 9e19 ef3c 16d8 0abd be00 963d
000000e0: 9a30 e03c 5a98 cb3d 6783 fd3d 503c 6ebd
000000f0: 7dec b7bc 40da 5e3d ed3d c83d 8593 1a3e
00000100: aff1 013d efbe 593e 9cf8 963d b380 fe3c
00000110: 1b8e 1e3e ebba 503d 9a1e 723e e48f 203e
00000120: 0d80 cebc 2cc7 48bd 155a 463d 2038 dcba
00000130: 282f 9e3d 3699 b3bd 931c 2bbe 0d97 553d
00000140: 43ce c93a d03b a43a 9633 c53d cd16 5d3d
00000150: 9da1 dc3c 81e5 d93c 26c8 6e3e e309 1f3d
00000160: 23f0 f9bc 1bb7 943c cb56 27bd c0b1 41bd
00000170: 4ced 2f3d 6c3d 1d3e 777f 7e3d a817 bdbb
00000180: 0e5c 3abd 9b79 183e 7a1f 0cbd 06e1 653b
00000190: b286 15bd a0e2 653d 4a4b 8c3a e0ff a13c
000001a0: 2d03 2bbd a3b3 a53d 291e 2e3e 7d88 113e
000001b0: 2a40 2ebd a95c 693e b6c6 1c3c 376c ac3d
000001c0: d836 873d dc2e e73c d796 933d 1109 2ebb
000001d0: 18ea 453d c398 963d 5d3c 4fbd 0640 293d
000001e0: 9f0e 7cbc 9166 533c b227 88bd b5da 5e3e
000001f0: 57a4 a43b 1cf9 be3c d368 fdbb 7997 153d
00000200: 7f40 283e 9aee e6bc 80b3 55bc 4930 693c
00000210: 8367 663d 17c8 973d 9137 153d 7830 ba3c
00000220: 92c9 25bc 3824 433d f392 15bd 68be 56bd
00000230: bd30 8f3d cd83 553c d033 973d d422 153d
00000240: 6fee 453d 214a 063c 23cd 9e3d 6ac7 9e3d
00000250: eed4 6ebd b411 f9bb 11ff af3c 50f6 cd3d
00000260: 46e0 a23d 2278 633e 5279 293a 18f8 043e
00000270: 1476 473e fa62 0e3c 2eb7 2abd c57d 2a3c
00000280: 85ce cf3c d00c d93d 44a1 9b3d a64a 35be
00000290: 65d9 323d ed7f 293d d85d 573d 95be a43d
000002a0: ca29 413d 04ce 9c3c ec75 333e 0148 783e
000002b0: 8072 f4bc a888 51bc 2862 a03d 9273 42be
000002c0: c684 2c3e f52f 41bc 61b2 9b3d db58 f93d
000002d0: 7040 19bd abb9 cf3d a11d de3d 60b5 8aba
000002e0: 218e cebc 2fed 2b3d cc14 c9bc fb62 e03c
000002f0: c8ee abbd 3a98 843d 54ce c43c 510c f03c
00000300: 6044 933d 1a9b bc3c 4538 6b3d 8d8e 713d
00000310: cd82 9ebd f0d5 083c 910e 733d d109 923d
00000320: 472d ccbc bf61 453e 350c 3f3d 1533 f5bc
00000330: 5c1b 2e3e 2bf5 623c 22c5 a43d c342 c73c
00000340: 9ca0 403c 09ae 4c3e 61ea 5c3d f89a 283d
00000350: 9ef0 3d3c 2627 d3bd bd18 eb3d 42ed 7c3d
00000360: a3c6 933c 16e2 84bc 039d 7f3c e6a9 03bc
00000370: 928d 22be 898b 0c3c 03b7 9a3d 6459 403e
00000380: b0b7 26bd 1b41 533d edc0 a43c eabf e23b
00000390: 9452 c5bc 11cd 0a3e 7941 493d 52ea 4a3b
000003a0: 562a a6bd 527a b73d 54f8 953e e9ba 1ebb
000003b0: 61e5 bfbc af86 75bd 3f42 1abc 45b5 be3c
000003c0: 8cdb 2b3d bda1 ff3d 225c f7bc 4958 e23d
000003d0: 16ae 043d 8d74 d63d 03fa 133b b9f0 eb3d
000003e0: fd6d 7d3b 34ca 993d 6b65 2bbc 8a5c 303e
000003f0: 619c 023e 4510 80bb b0f2 a03b 994e 433d
-0.055244315 0.034348592 -0.018666111 0.12677386 -0.0029849347 0.0013097485 0.19116166 0.017456684
0.10971117 0.030306112 0.049572702 0.08266236 0.028190034 0.030772926 0.13143867 0.23909965
0.012215608 0.13128419 0.023472192 0.15175314 0.2523775 0.20275956 0.049841866 -0.020028887
-0.006745667 -0.019038036 0.089724265 0.010708683 0.07181439 -0.06860418 -0.0026228107 0.11213538
0.027082197 0.046260085 -0.09025547 -0.057718575 0.10039463 0.053855717 0.18014629 0.2516772
-0.038907696 0.0077058217 0.26667082 0.075754926 -0.088431835 0.042037435 -0.006457522 -0.030152343
-0.057805054 -0.029546296 0.05813792 0.11357056 0.15959916 0.02918702 -0.03389748 0.0732436
0.027366925 0.09941168 0.12378579 -0.058162987 -0.022451634 0.05440736 0.097774364 0.15095337
0.031724628 0.21264242 0.07371637 0.031067228 0.15483896 0.05095951 0.23644486 0.1567989
-0.025207544 -0.04901807 0.048425753 -0.0016801395 0.07723838 -0.08769457 -0.16710119 0.052146006
0.0015396554 0.0012530033 0.0962898 0.053976823 0.026932532 0.026598694 0.23318538 0.038827788
-0.030510014 0.018153718 -0.040854257 -0.047288656 0.042950913 0.15355462 0.06213328 -0.0057706423
-0.045497946 0.14890139 -0.034209706 0.0035076751 -0.03650541 0.05612433 0.001070359 0.019775331
-0.041751076 0.080909036 0.17003693 0.14212222 -0.04254166 0.22789253 0.009568861 0.08419078
0.066022575 0.028220586 0.07206505 -0.0026555697 0.048318952 0.07353356 -0.050594676 0.041320823
-0.015384345 0.012902872 -0.06648196 0.21763118 0.0050244736 0.023312144 -0.0077334433 0.03652141
0.16430853 -0.028189946 -0.013043284 0.0142327035 0.05625106 0.07411211 0.036429945 0.02272819
-0.010118859 0.047641963 -0.036517095 -0.05242768 0.06991718 0.013031912 0.07382929 0.036410168
0.04832309 0.008196385 0.077539705 0.07752879 -0.058308534 -0.0076009873 0.02148393 0.10056746
0.07952933 0.22213796 0.00064649165 0.12985265 0.19478637 0.00869059 -0.0416786 0.010405962
0.02536703 0.10598147 0.07599118 -0.17704257 0.043664355 0.041381765 0.05257973 0.08044163
0.047158994 0.019141205 0.17525452 0.24246217 -0.029839754 -0.012788929 0.07831222 -0.18989399
0.16847524 -0.011791219 0.076023825 0.12175151 -0.037414968 0.10142835 0.10845495 -0.0010582618
-0.025214257 0.041974243 -0.02454605 0.027390948 -0.08395153 0.064743474 0.024024166 0.029302748
0.07190776 0.023023177 0.05742671 0.058973838 -0.07739792 0.008351788 0.059340063 0.071307786
-0.024923934 0.19275568 0.0466425 -0.029931584 0.17002624 0.013852398 0.080454126 0.024323827
0.011757042 0.19988264 0.05393446 0.041163415 0.011593012 -0.10310201 0.11479328 0.061749704
0.018039053 -0.016221087 0.015601399 -0.008036112 -0.15874317 0.00857819 0.07554438 0.187841
-0.04070252 0.05157576 0.020111525 0.0069198506 -0.024087228 0.13554789 0.049134705 0.003096242
-0.08113544 0.089588776 0.29291022 -0.0024220294 -0.023424806 -0.059942897 -0.009415208 0.023279795
0.041957423 0.12482021 -0.0301953 0.11051995 0.032392584 0.10471449 0.0022579439 0.115205236
0.0038670294 0.0750927 -0.010461192 0.17222801 0.12754966 -0.0039081895 0.004911743 0.04768238

linear2.bias f4 [4]
00000000: ae14 f1be bfa2 6b3e fda1 373e 8c16 90be
-0.4708609 0.23011301 0.17932887 -0.28142202
